_archive/tests/goose2309.onnx (onnx, 303058 bytes, 16 tensors)

fc.weight f4 [2, 256]
0	0xbdabb3d1	-0.08383907
1	0xbd26fb90	-0.040767252
2	0xbdb7bfcc	-0.08972129
3	0xbd80ca8f	-0.06288635
4	0xbde46d59	-0.11153669
5	0xbe056794	-0.13027793
6	0xbd6af359	-0.05736098
7	0xbd693484	-0.05693485
8	0xbc066625	-0.008203064
9	0x3cc1a214	0.023636855
10	0xbcf9d8d9	-0.030498909
11	0x3d6eacca	0.058270253
12	0x3be903c7	0.007111046
13	0x3d1b3691	0.037893835
14	0xbcf6a845	-0.030109534
15	0xbcc6f193	-0.024285113
16	0x3dae52d4	0.08511892
17	0x3d9d133a	0.07669683
18	0x3d1c445d	0.038151134
19	0x3d7d2f67	0.061812785
20	0xbca54e23	-0.02017886
21	0x3e14c0b2	0.14526632
22	0x3d1b7fe1	0.03796375
23	0x3e013d4a	0.12621036
24	0x3d4249f9	0.047433827
25	0x3c049543	0.008092227
26	0x3cbb7b53	0.022885954
27	0xbcbd7108	-0.023125187
28	0x3bad6f37	0.005292799
29	0xbca99603	-0.020701414
30	0xbb7e4db4	-0.003880364
31	0x3c38d886	0.011282092
32	0x3d7a6805	0.061134357
33	0x3d215c73	0.039394807
34	0x3dc49e3e	0.09600495
35	0x3dc815fd	0.09769819
36	0xbd38ffc8	-0.045165807
37	0xbd7c0318	-0.061526388
38	0xbcdfb01e	-0.027305659
39	0xbce071a4	-0.027397938
40	0xbae83c44	-0.0017718156
41	0xbd17d982	-0.037072666
42	0x3ccd9113	0.02509359
43	0x3cc21e86	0.023696195
44	0xbbbaeca4	-0.0057044793
45	0xbc1a2d0b	-0.009410153
46	0x3c97631a	0.018479872
47	0xbcd8b933	-0.026455497
48	0x3d3ddf96	0.046355806
49	0x3d25659e	0.040380113
50	0x3da0bf83	0.07849028
51	0x3ce665a1	0.028124632
52	0x3de850d9	0.113435455
53	0x3debbd82	0.11510755
54	0x3dc70f18	0.09719676
55	0x3dedb29b	0.11606332
56	0x3dc7738c	0.09738836
57	0x3d66c7d9	0.056342933
58	0x3dc18936	0.09449999
59	0x3db922b3	0.090398215
60	0xbd20b9da	-0.03923974
61	0xbcd12485	-0.02553011
62	0xbd638942	-0.05555082
63	0xbc56c285	-0.0131079005
64	0x3d2faeca	0.0428913
65	0x3d6ef069	0.05833474
66	0xbd7bb777	-0.061454263
67	0xbd368661	-0.044561747
68	0xbd29eea8	-0.041487366
69	0xbd88037d	-0.0664129
70	0x3c7c6ae8	0.015406348
71	0xbbf55e44	-0.007488044
72	0x3c0c78f2	0.0085737575
73	0x3bb35360	0.0054725856
74	0xbbc2ef65	-0.005948948
75	0x3b468b7e	0.0030295546
76	0xbd9926ef	-0.07478129
77	0xbdce6cb3	-0.100793265
78	0xbd6b6cdd	-0.057476867
79	0xbcbe511e	-0.023232039
80	0xbc0eed3c	-0.008723553
81	0x3c44fbca	0.012022922
82	0xbd03b95f	-0.032159206
83	0xbb091a69	-0.0020920283
84	0xbd706bcf	-0.058696564
85	0xbce3091e	-0.027714308
86	0x3c835e74	0.01603625
87	0xbd4d8c64	-0.050182715
88	0x3cda2048	0.026626721
89	0xbddf38ef	-0.10899531
90	0x3d252e35	0.04032727
91	0xbd4db0bf	-0.050217386
92	0xbdc1a928	-0.09456092
93	0xbe2fa3df	-0.17152356
94	0xbd0ddd80	-0.034635067
95	0xbe15bf15	-0.14623673
96	0xbc08d6ed	-0.008352024
97	0xbd5326fb	-0.051550847
98	0xba82492a	-0.0009940017
99	0xbc265c19	-0.010153794
100	0x3dbab2e3	0.09116151
101	0x3c8fb3b2	0.01754174
102	0x3d1d8498	0.03845653
103	0x3d7c815b	0.0616468
104	0xbb9b203e	-0.004734068
105	0xbb263659	-0.0025361984
106	0xbc6bb25e	-0.014385788
107	0xbcf2b690	-0.029628068
108	0xbc1f4964	-0.0097220875
109	0xba0a443a	-0.0005274449
110	0x3cd4f9a3	0.025997942
111	0xbcbb5281	-0.02286649
112	0x3a80b9f8	0.0009821048
113	0x3cd09367	0.025460912
114	0xbc919a1d	-0.017773682
115	0xbc62da71	-0.013846026
116	0xbdc7caa1	-0.09755445
117	0xbe1b15f0	-0.15145087
118	0xbd68031a	-0.056643583
119	0xbe08eb78	-0.13371074
120	0x3d3471a2	0.04405368
121	0xbc320a8a	-0.0108667705
122	0x3d8adf15	0.06780831
123	0xbc184560	-0.009293884
124	0xbd9f1dba	-0.07769342
125	0xbd88319b	-0.066500865
126	0xbc18e3e3	-0.009331676
127	0xbcd58960	-0.026066482
128	0x3d191db6	0.03738185
129	0xbc99e86e	-0.018787589
130	0x3bec7a48	0.0072167255
131	0xbc80cbb1	-0.015722128
132	0xbcbcdca7	-0.023054434
133	0x3df41957	0.11918896
134	0x3d6f789c	0.05846463
135	0x3e13db80	0.14439201
136	0x3db2b649	0.087261744
137	0x3ad27f48	0.0016059661
138	0x3dc92aa0	0.09822583
139	0xbcaa2b6f	-0.020772664
140	0x3ddabbd0	0.10680354
141	0x3dbfa154	0.09356943
142	0x3c9bd0f2	0.019020531
143	0x3dbc9118	0.09207362
144	0xbc3a75bd	-0.01138061
145	0x3bf86dc6	0.0075814454
146	0x3c04aef8	0.008098356
147	0xbc101992	-0.008795159
148	0x3ce36c99	0.027761744
149	0x3d1a1af7	0.037623372
150	0xbd0e2950	-0.034707367
151	0xbcfde532	-0.030993078
152	0xbd9d129b	-0.07669564
153	0xbcd902d8	-0.026490614
154	0xbd5c57f8	-0.05379483
155	0xbc89da53	-0.016827738
156	0x3d7e1e5d	0.062040675
157	0x3d864a9c	0.06557199
158	0x3da51b41	0.08061839
159	0x3d59cab4	0.05317183
160	0x3d6e2a66	0.058145903
161	0x3df77ddf	0.12084555
162	0x3dcbf6b3	0.099591635
163	0x3e0a17a7	0.13485585
164	0x3d9d0bb1	0.076682456
165	0x3d287144	0.041123644
166	0x3d6f436b	0.058413904
167	0xbd0369d7	-0.03208336
168	0xbdf7ce96	-0.1209995
169	0xbe03c75d	-0.1286902
170	0xbcc204a3	-0.023683852
171	0xbd5fa0c8	-0.054596692
172	0xbb06b097	-0.0020552033
173	0xbd3b1755	-0.045676548
174	0xbd43e810	-0.047828734
175	0xbcbe8547	-0.023256911
176	0x3dd6122f	0.10452687
177	0x3d08369a	0.033255197
178	0x3dcbae7a	0.09945388
179	0x3dcc4eee	0.09975992
180	0xbd02a5d0	-0.031896412
181	0x3d09f1cc	0.03367786
182	0xbcee76e2	-0.029109422
183	0x3d2dd248	0.042436868
184	0xbe03ba93	-0.12864141
185	0xbd874e14	-0.06606689
186	0xbdfc9503	-0.12333109
187	0xbd9d6551	-0.0768534
188	0xbc05b235	-0.008160164
189	0xbd173af7	-0.036921468
190	0x3c580235	0.01318412
191	0x3cb963e7	0.022630645
192	0xbc9979b2	-0.018734787
193	0x3cf2f3cc	0.029657267
194	0xbcb63975	-0.022244195
195	0x3b25c284	0.0025292942
196	0x3d137045	0.03599574
197	0x3da5fb43	0.08104565
198	0xbd4091f6	-0.0470142
199	0xbce1f644	-0.027583249
200	0x3d9dc4f3	0.07703581
201	0x3d86ee3f	0.065884106
202	0x3dce1c4f	0.10063993
203	0x3e04f25f	0.12983082
204	0x3c49005e	0.012268154
205	0x3c2ddeed	0.010612232
206	0xbb8649b4	-0.0040981416
207	0x3ba9bf1a	0.005180252
208	0xbd471f5f	-0.048613902
209	0xbdb4517c	-0.088046044
210	0xbdc77a0d	-0.09740076
211	0xbd558184	-0.05212547
212	0xba3e8a4f	-0.00072685344
213	0x3c5aa01c	0.013343837
214	0xbcd586ac	-0.026065193
215	0x3d4e72e0	0.050402522
216	0xbd7b9aa3	-0.06142677
217	0xbdead0f5	-0.11465637
218	0xbdf4cf1e	-0.11953567
219	0xbdba55cf	-0.09098398
220	0xbd59cb37	-0.053172316
221	0xbd60df89	-0.05490068
222	0xba450d21	-0.000751691
223	0xbd7cbbe0	-0.06170261
224	0x3ca68668	0.020327762
225	0xbcfa656f	-0.030565945
226	0xbc975420	-0.018472731
227	0x3c3c93b2	0.011509823
228	0xbdad3bb6	-0.084586546
229	0xbcf36078	-0.029709086
230	0xbda6353e	-0.08115624
231	0xbd7d3c26	-0.06182494
232	0x3cc1f20c	0.023674987
233	0xbc23ecc3	-0.010005179
234	0x3dd98967	0.106219105
235	0x3cdf0098	0.027221963
236	0xbc86c46a	-0.01645108
237	0x3c996798	0.018726155
238	0xbbe49ce8	-0.0069767125
239	0x3b15c1c6	0.0022851094
240	0x3b485d7f	0.0030573306
241	0x3d5a5b28	0.05330959
242	0x3d8835fd	0.066509224
243	0x3dcfde65	0.1014984
244	0x3d969dbb	0.073543034
245	0x3c6eafbd	0.014568266
246	0x3d7220df	0.05911338
247	0xbcda9c04	-0.026685722
248	0xbd2dc6e2	-0.042425998
249	0xbe08feea	-0.13378492
250	0xbcba7c2e	-0.022764292
251	0xbdcc08e4	-0.09962633
252	0xbd04baec	-0.032404825
253	0xbd94d934	-0.07267991
254	0xbd787499	-0.06065807
255	0xbd96d6f4	-0.07365218

fc.bias f4 [2]
0	0x3ccfd079	0.025367962
1	0x3d4d7ff7	0.050170865

onnx::Conv_80 f4 [16, 3, 7, 7]
0	0xbcf90e71	-0.030402394
1	0xbd8ae70d	-0.06782351
2	0x3d176011	0.03695685
3	0x3e1a818a	0.15088478
4	0x3d1220b3	0.035675716
5	0x3e80277c	0.25030124
6	0x3d81886e	0.0632485
7	0xbe1e9252	-0.15485504
8	0xbd81b0b4	-0.063325316
9	0x3e206c98	0.15666425
10	0x3e2402ac	0.16016644
11	0x3dac5d15	0.084161915
12	0x3cb66a13	0.022267377
13	0x3e107b44	0.14109522
14	0xbddc08d5	-0.10743872
15	0x3def79a5	0.11693124
16	0x3d58fb07	0.052973773
17	0xbe13677a	-0.14394942
18	0x3e32e7a7	0.17471181
19	0x3e08465b	0.13308088
20	0x3e0f68dc	0.14004844
21	0x3e46fb2a	0.19431749
22	0x3e05e1eb	0.13074462
23	0x3d33eaee	0.04392522
24	0xbda17c74	-0.07885066
25	0xbd5a553e	-0.05330395
26	0x3d326a6a	0.043558516
27	0x3e0b61b9	0.13611497
28	0x3db79dfc	0.0896568
29	0xbd8bd258	-0.06827229
30	0x3d0cfca2	0.034420617
31	0xbe7407d4	-0.23831111
32	0xbbc43ffa	-0.005989072
33	0x3d674b0d	0.05646806
34	0x3d7ad2a9	0.061236057
35	0xbe0a384c	-0.13498038
36	0xbd130be4	-0.03590001
37	0x3caee977	0.02135156
38	0xbeaf4c72	-0.3423801
39	0xbe8cfb4e	-0.2753548
40	0xbe74e872	-0.23916796
41	0xbd3619cf	-0.044458207
42	0xbe510a50	-0.2041409
43	0x3d37542c	0.044758007
44	0xbe8e7549	-0.27823856
45	0xbea32ca3	-0.31869993
46	0xbea5ea67	-0.32405397
47	0xbea236d6	-0.31682462
48	0xbe1ed1f4	-0.15509778
49	0xbce8abba	-0.028402198
50	0xbdd678ac	-0.10472235
51	0xbe5a2d63	-0.21306376
52	0xbd00dd0b	-0.031460803
53	0xbddb74a0	-0.10715604
54	0xbd904171	-0.07043732
55	0xbe1addee	-0.15123722
56	0xbe80d337	-0.25161144
57	0xbe1b2627	-0.15151273
58	0xbd5e43eb	-0.05426399
59	0xbe688497	-0.22706829
60	0x3d49ffa2	0.049316056
61	0xbe0403d9	-0.12892093
62	0x3e03f850	0.12887692
63	0xbdf6b64c	-0.12046489
64	0xbded83be	-0.115973935
65	0xbe989df8	-0.2980802
66	0xbe1e7acb	-0.1547653
67	0xbe3e131b	-0.18561976
68	0xbe56b732	-0.20968321
69	0x3cbe1778	0.02320455
70	0x3cef8337	0.029237373
71	0xbdbc067c	-0.09180924
72	0xbd77311d	-0.060349572
73	0xbe21d897	-0.15805279
74	0xbdea2072	-0.1143197
75	0x3d611a61	0.054956798
76	0xbdd81b1f	-0.10552048
77	0x3e1703f8	0.14747608
78	0x3ddeb2ed	0.10873971
79	0xbe1a7566	-0.15083846
80	0x3c1fe380	0.00975883
81	0x3dd616d1	0.10453571
82	0xbc9b2790	-0.018939763
83	0x3db33d84	0.087519675
84	0x3e28312f	0.16425012
85	0x3cd4211f	0.0258947
86	0xbd5f3b0f	-0.054499682
87	0xbe112b13	-0.14176588
88	0xbe33ebe0	-0.17570448
89	0xbdaaacbd	-0.083337285
90	0xbe0dab28	-0.13834822
91	0xbdbf68e7	-0.093461804
92	0x3d57d635	0.052694518
93	0xbd90ba28	-0.070667565
94	0xbd36ae90	-0.04460007
95	0x3a853059	0.0010161503
96	0x3d375186	0.04475548
97	0x3d640b7b	0.05567501
98	0xbe572844	-0.21011454
99	0xbd701e91	-0.0586229
100	0xbdf09472	-0.11747064
101	0x3cff4e3c	0.031165235
102	0xbd22e573	-0.0397696
103	0xbe23903d	-0.15972991
104	0x3d8889bd	0.066668965
105	0xbde4a769	-0.111647435
106	0xbccd70cd	-0.025078202
107	0xbe159f1b	-0.14611475
108	0xbcda8126	-0.02667291
109	0x3c7a83f0	0.015290245
110	0xbcf3e625	-0.029772827
111	0xbe050a85	-0.12992294
112	0xbd58dfd7	-0.052947845
113	0x3c962667	0.018328859
114	0xbe4897c2	-0.19589141
115	0xbe578b24	-0.21049172
116	0x3d8d71ff	0.06906509
117	0x3dbb5d90	0.09148705
118	0xbd94236b	-0.07233318
119	0x3e2db5ac	0.16963834
120	0x3e41400b	0.18872087
121	0xbc7e0f79	-0.015506619
122	0x3cc503c5	0.024049649
123	0x3cfcb1b7	0.03084646
124	0x3cce2e74	0.025168635
125	0x3e80d535	0.25162664
126	0x3e889573	0.2667652
127	0x3eab26bd	0.33427992
128	0x3e0666ad	0.13125105
129	0x3d4f3741	0.050589804
130	0x3dc99ee4	0.09844759
131	0x3e4fb376	0.20283303
132	0x3e81512c	0.25257242
133	0x3eb37879	0.3505285
134	0x3d70b160	0.058762908
135	0xbd605c48	-0.054775506
136	0x3debde35	0.11516992
137	0xbdb1638e	-0.08661567
138	0xbdbe3aa1	-0.09288526
139	0x3d47a44d	0.048740674
140	0x3df39b20	0.11894822
141	0x3ea05852	0.31317383
142	0x3e2ca638	0.16860282
143	0xbdbb30ad	-0.091401435
144	0xbca0491c	-0.019566111
145	0x3d5e5cca	0.05428771
146	0x3df5d1d0	0.12002909
147	0x3d1542fe	0.03644084
148	0x3d799ed7	0.060942497
149	0x3e32c0cf	0.17456363
150	0x3c2da518	0.010598443
151	0x3d40e3b3	0.04709215
152	0xbd2e4256	-0.04254373
153	0xbaf7869b	-0.001888472
154	0xbda70e33	-0.08157005
155	0x3d0a0c62	0.033703215
156	0x3d4b4fac	0.049636528
157	0x3d126256	0.03573831
158	0x3da62ab4	0.08113614
159	0x3db23a02	0.0870247
160	0x3d4a5c97	0.049404707
161	0xbd24598e	-0.04012447
162	0xbe14320c	-0.14472216
163	0x3d68e9c1	0.05686355
164	0x3dc82827	0.097732835
165	0x3e05d501	0.13069536
166	0x3db7b4fc	0.08970067
167	0x3d5a0bfb	0.05323408
168	0x3d5750cf	0.0525673
169	0xbd801a00	-0.06254959
170	0xbcdb1d21	-0.026747288
171	0xbdad6c67	-0.08467942
172	0xbcbef069	-0.023307996
173	0x3e08c79b	0.13357393
174	0x3d7ce8a2	0.061745293
175	0xbd6e0e74	-0.058119252
176	0x3c293395	0.0103272395
177	0x3dc825ed	0.09772859
178	0x3de4f45b	0.111794196
179	0x3dcec256	0.100956604
180	0x3e18581d	0.14877363
181	0x3cc93f53	0.024566328
182	0xbe469736	-0.1939362
183	0xbe11323f	-0.14179324
184	0xbe018eb0	-0.12652087
185	0xbe2fad2d	-0.17155905
186	0xbd9c97b4	-0.076461226
187	0xbc9e0ea6	-0.019294094
188	0xbd966cd2	-0.073449746
189	0xbe7b34ae	-0.24531814
190	0xbe031084	-0.12799269
191	0x3c568664	0.013093565
192	0xbe3a1561	-0.18172218
193	0xbd74b64d	-0.059744168
194	0xbdfb715f	-0.12277483
195	0x3e22ba2d	0.15891333
196	0xbda790ef	-0.08181941
197	0xbbbe07ea	-0.0057992833
198	0x3cdf25b7	0.027239664
199	0xbe084b04	-0.13309866
200	0x3c5a784a	0.013334343
201	0xbe01ca3e	-0.12674806
202	0xbddbb4ed	-0.10727868
203	0xbdeb5aed	-0.11491952
204	0x3db2edf9	0.08736796
205	0x3e00d49a	0.12581101
206	0x3e3f65fa	0.18691245
207	0x3dcef18d	0.10104666
208	0x3dd4e9cf	0.10396158
209	0x3b143ef8	0.002262054
210	0xbe195c87	-0.14976703
211	0xbd358076	-0.044311963
212	0xbc9bd7d7	-0.019023819
213	0x3dee6c39	0.116417356
214	0x3e139d85	0.14415558
215	0x3e19d476	0.15022454
216	0xbd93a7c3	-0.072097324
217	0xbe0eb3d6	-0.1393579
218	0xbe472387	-0.19447146
219	0xbdc1630c	-0.0944272
220	0x3dc034e5	0.09385089
221	0x3dabba16	0.083851025
222	0x3e2b5f18	0.16735494
223	0xbb5ce11a	-0.0033703507
224	0xbd936ff6	-0.07199089
225	0xbcccc84b	-0.02499785
226	0xbdb80fd0	-0.08987391
227	0xbb00efe0	-0.0019674227
228	0x3d1ff94d	0.03905611
229	0x3e10f897	0.1415733
230	0x3dddb490	0.10825455
231	0xbe2b3cf9	-0.16722478
232	0xbce187c3	-0.027530557
233	0x3d70a470	0.05875057
234	0x3d3143ed	0.04327767
235	0xbdc5c64a	-0.09656961
236	0xbc9d679f	-0.01921445
237	0x3df223fd	0.118232705
238	0xbdc7cf36	-0.09756319
239	0xbe0334b4	-0.12813073
240	0xbe53987d	-0.20663638
241	0xbe0ca7be	-0.13735864
242	0x3d6dfce9	0.058102522
243	0xbc0368a6	-0.008020556
244	0xbd95b142	-0.073092
245	0xbe0f32c0	-0.13984203
246	0x3d11e299	0.03561649
247	0xbe327bc5	-0.17430027
248	0x3dcb7b01	0.099355705
249	0x3d8cae67	0.06869202
250	0x3ca25ed2	0.019820604
251	0xbdd62ec2	-0.10458137
252	0xbe1d753f	-0.15376757
253	0x3d3c4986	0.045968555
254	0x3dcdf3d1	0.1005627
255	0x3dd53639	0.10410733

onnx::Conv_81 f4 [16]
0	0x3f98117e	1.1880338
1	0x3d87571b	0.06608411
2	0xbf64c3b1	-0.893611
3	0xbf9fb95e	-1.2478445
4	0xbf9cedd3	-1.2260078
5	0x3fc509f2	1.539366
6	0x3f6a4877	0.9151682
7	0xbdb0eb78	-0.08638662
8	0xbd6b85f8	-0.05750081
9	0x3f2d61dc	0.67727447
10	0x3f92c5d0	1.1466618
11	0xbf8396a3	-1.0280346
12	0xbdaf4f6d	-0.08560071
13	0x3f899122	1.0747416
14	0xbfba39f9	-1.4548942
15	0x3fc61a7f	1.5476836

onnx::Conv_83 f4 [32, 16, 3, 3]
0	0xbc5c4c13	-0.013445872
1	0xbb84e87b	-0.004056034
2	0x3c9f70d1	0.019462975
3	0xbc94a1f0	-0.018143624
4	0xbce6b837	-0.028164012
5	0xbc9e77be	-0.019344207
6	0xbd41b30d	-0.047289897
7	0xbd1a7107	-0.037705448
8	0xbcd04e2b	-0.025427898
9	0xbbec17e7	-0.007204998
10	0x3c54b705	0.012983088
11	0x3ca82f4f	0.020530371
12	0xbd1c1a28	-0.038110882
13	0xbd256d06	-0.040387176
14	0x3d492f4c	0.04911737
15	0xbd62560d	-0.055257846
16	0x3d034789	0.032050643
17	0x3d09c23a	0.033632495
18	0xbb79e395	-0.0038130034
19	0x3ca852c1	0.020547273
20	0xbc972d05	-0.018454084
21	0xbb48f600	-0.0030664206
22	0xba2527e0	-0.00063001923
23	0xbd2674d3	-0.040638756
24	0xbd0d3b61	-0.034480456
25	0x3c552fae	0.013011856
26	0x3ce394da	0.027780939
27	0xbd4f679b	-0.050635915
28	0xbd1d7f3c	-0.03845142
29	0xbd4c8e61	-0.04994047
30	0xbd27d822	-0.040977605
31	0xbd2dfc0d	-0.042476702
32	0xbc9240d5	-0.01785318
33	0xbcede4f4	-0.029039837
34	0xbcbdc5c4	-0.023165591
35	0xbcf586ff	-0.029971598
36	0xbd1de012	-0.03854377
37	0xbd47f115	-0.048813898
38	0xbc7be1d0	-0.015373662
39	0xbc365458	-0.011128508
40	0x3ce03a3a	0.027371515
41	0xbb393ec5	-0.0028266173
42	0x3c36530a	0.0111281965
43	0x3d079eae	0.033110313
44	0x3da69364	0.08133581
45	0x3d0da9d9	0.034585807
46	0x3d4eb3b8	0.050464362
47	0x3ca12443	0.019670611
48	0xbd15777b	-0.0364909
49	0xba66cd31	-0.00088043796
50	0x3d062780	0.032752514
51	0xbda7130f	-0.08157932
52	0xbd0b77b3	-0.0340497
53	0x3cbd3f8f	0.023101596
54	0x3d41b600	0.04729271
55	0x3b332a4a	0.0027338439
56	0x3c562adc	0.013071742
57	0xbcc408de	-0.02393001
58	0x3c0676e1	0.008207054
59	0x3a9ed386	0.0012117482
60	0xbd6a32a5	-0.057177205
61	0xbd371711	-0.044699732
62	0xbcea4c0f	-0.02860072
63	0xbd6ce5cd	-0.057836343
64	0xbc7703e3	-0.01507661
65	0xbcf32987	-0.029682888
66	0xbd2d6972	-0.04233689
67	0xbc438e22	-0.011935743
68	0xbc408d33	-0.0117524145
69	0xbc3193cd	-0.010838461
70	0x3d1f77e4	0.038932696
71	0x3c9a7b09	0.018857496
72	0xbd0c0d6c	-0.034192488
73	0x3cbe2573	0.023211217
74	0x3d012270	0.031526983
75	0xbb50b6ca	-0.0031847232
76	0xbb76c285	-0.0037652564
77	0x3cebf021	0.028801026
78	0x3ba73543	0.005102785
79	0x3d186559	0.037206028
80	0x3d48b024	0.048996106
81	0x3c4bf714	0.012449045
82	0xbc34ec55	-0.011042674
83	0x3c5f4bb7	0.013628892
84	0xbc71dcb1	-0.01476209
85	0xbcac9a35	-0.021069625
86	0x3d3b2c8d	0.045696784
87	0x3b8911c1	0.0041830246
88	0x3cc23087	0.02370478
89	0x3c395fcb	0.011314343
90	0xbb89852c	-0.0041967835
91	0x3cefa92b	0.02925547
92	0x3ce9be77	0.028533204
93	0xbd15f2e3	-0.036608588
94	0x3bd975e3	0.0066363676
95	0x3b8c98f7	0.004290696
96	0xbd65e76f	-0.056128915
97	0xbc8af18e	-0.016960885
98	0xbce1e1ea	-0.027573545
99	0xbc5826ab	-0.013192813
100	0xbc8c0ddf	-0.017096458
101	0xbc8456b0	-0.016154617
102	0xbc3c2738	-0.01148396
103	0xbd136e14	-0.03599365
104	0x3b9946f6	0.0046776487
105	0x3b80cc3c	0.0039305966
106	0xbc25236e	-0.010079248
107	0x3c1c18bf	0.009527384
108	0x3d721153	0.059098553
109	0x3d2ec937	0.042672362
110	0x3cc5b138	0.024132356
111	0xba8e8fc6	-0.0010876588
112	0x3d366943	0.04453398
113	0xbd48473c	-0.04889606
114	0xbc602c0e	-0.013682378
115	0x3d095ee0	0.033537745
116	0xbd2cfc6c	-0.042232916
117	0x3d137a19	0.036005113
118	0x3c89e777	0.016834004
119	0x3cc214ec	0.023691617
120	0xbb5fc20c	-0.003414276
121	0xbbafd61b	-0.0053660995
122	0xbd004ee5	-0.03132524
123	0xbcdcfe66	-0.026976775
124	0x3cc17deb	0.023619613
125	0xbc39d36f	-0.011341914
126	0xbc531aaa	-0.012884775
127	0xbd4001cb	-0.04687671
128	0xbd230407	-0.039798763
129	0xbc55bcf1	-0.013045535
130	0xbd0c7856	-0.03429445
131	0xbcf22d4b	-0.029562613
132	0xbc6f4346	-0.014603442
133	0xbca9cb2c	-0.020726763
134	0xb9ae2fa5	-0.00033223364
135	0xbd0a077b	-0.03369854
136	0xbc339ef9	-0.010963195
137	0xbc9579d6	-0.018246572
138	0xbcd02b80	-0.025411367
139	0xbd2d23f5	-0.04227062
140	0xbced24aa	-0.028948147
141	0xbcb8d1b5	-0.022560934
142	0xbd690be5	-0.05689611
143	0xbd111555	-0.035420734
144	0x3c1d2e09	0.009593495
145	0x3d107910	0.035271704
146	0x3c3819cf	0.011236622
147	0x3d5079bf	0.050897356
148	0xbb8eff24	-0.004363911
149	0x3cb21784	0.021739729
150	0x3d47b0c8	0.048752576
151	0x3b134260	0.0022469983
152	0xbcb78e8c	-0.022406839
153	0x3d285649	0.041097913
154	0x3d4146de	0.047186725
155	0xbd61ad24	-0.05509676
156	0xbc92605a	-0.01786821
157	0x3cd692d5	0.026193062
158	0x3b5f1691	0.003404055
159	0x3c8e58b9	0.01737629
160	0xbcf40301	-0.029786589
161	0xbad24fa0	-0.0016045459
162	0xbc3e2fd7	-0.011608086
163	0xbcb275e1	-0.021784725
164	0xbcd4e428	-0.0259877
165	0xbd060197	-0.03271636
166	0x3d300531	0.0429737
167	0x3d86193a	0.0654778
168	0xbcb7a7c2	-0.02241886
169	0xbcee200a	-0.029068012
170	0x3d67e0a7	0.05661073
171	0xbc7705e9	-0.015077093
172	0x3d4d1c92	0.050076075
173	0xbd012de8	-0.03153792
174	0xbc459ba2	-0.012061032
175	0xbb75ac32	-0.003748667
176	0x3c070fa8	0.008243479
177	0xbc9787a4	-0.018497296
178	0xbc89200d	-0.016738916
179	0xbd34dda0	-0.04415667
180	0x3ca2bed9	0.019866394
181	0xbcb14a0e	-0.021641757
182	0xbd1e4e08	-0.038648635
183	0x3be0a899	0.006856036
184	0x3d38245c	0.04495655
185	0xbd7cb8fe	-0.06169986
186	0x3d8717de	0.06596349
187	0x3d1a16dc	0.037619457
188	0xbcec2658	-0.028826877
189	0x3d8c8bf1	0.06862629
190	0xbcca885b	-0.024723222
191	0xbc974700	-0.018466473
192	0x3db692fe	0.08914755
193	0xbd6e98c0	-0.058251143
194	0xbb32da30	-0.0027290694
195	0xbc902cce	-0.01759949
196	0x3c46213c	0.012092885
197	0xbd56c4c8	-0.05243376
198	0xbce9841a	-0.028505374
199	0xbc639890	-0.013891354
200	0xbb3156d2	-0.0027059806
201	0x3c96af73	0.018394208
202	0xbc6ad5c7	-0.014333195
203	0xbbfb9d6e	-0.007678679
204	0x3c4c87b4	0.012483526
205	0xbce0d1a1	-0.027443709
206	0xbb57f512	-0.003295247
207	0x3cdf2124	0.027237482
208	0xbaed94b7	-0.0018125986
209	0xbd677e4f	-0.05651694
210	0xbc5cb5ce	-0.01347108
211	0xba631072	-0.00086618133
212	0xbd50914a	-0.05091981
213	0x3c397a53	0.011320668
214	0xbbd2ab03	-0.0064290776
215	0xbbbed6f0	-0.0058239624
216	0x3d90836f	0.07056319
217	0x3c502349	0.012703725
218	0xbd0a0b93	-0.033702444
219	0x3d55ab7d	0.052165497
220	0x3ca80b85	0.020513305
221	0xbd2b902c	-0.04188554
222	0x3cbf996f	0.023388593
223	0xbbd3a259	-0.0064585623
224	0xbd03ef0d	-0.0322104
225	0xbc6485f0	-0.013947949
226	0xbd05a389	-0.032626662
227	0x3d1e3041	0.038620237
228	0x3cf043c5	0.02932919
229	0x3c94e59b	0.01817589
230	0xbcec006f	-0.0288088
231	0x3c447520	0.011990815
232	0xbc467059	-0.012111747
233	0x3cca7889	0.024715679
234	0xbd5e2b53	-0.054240536
235	0xbd78b98a	-0.06072382
236	0xbc83a6c3	-0.01607073
237	0xbcc03342	-0.023461942
238	0xbd5b93c2	-0.05360771
239	0xbcc0ff5a	-0.023559261
240	0xbd8652f9	-0.065587945
241	0xbd309092	-0.043106623
242	0xbced4fea	-0.02896877
243	0xbd0796aa	-0.03310267
244	0xbd576044	-0.05258204
245	0xbd64a8b4	-0.05582495
246	0xbcabb160	-0.020958602
247	0x3c623865	0.013807391
248	0xbc2ac32d	-0.01042251
249	0x3d158d74	0.036511853
250	0x3ce3b13f	0.027794478
251	0xbcb78f6a	-0.022407252
252	0x3bb72e48	0.005590234
253	0xbd30f8bc	-0.04320596
254	0xbc1bb160	-0.009502739
255	0x3d654220	0.055971265

onnx::Conv_84 f4 [32]
0	0x3ec7c256	0.39015454
1	0xbd9c775f	-0.07639956
2	0x3ded5516	0.115884945
3	0x3e9dd2da	0.3082493
4	0x3e7db731	0.24776913
5	0x3df87afb	0.12132832
6	0x3ee50604	0.44731152
7	0xbe927216	-0.28602666
8	0x3e2a3651	0.16622283
9	0x3ea1d195	0.3160521
10	0x3db39c68	0.087700665
11	0x3e1d605b	0.15368788
12	0xbea533bb	-0.3226603
13	0xbe932574	-0.28739512
14	0x3e83018b	0.25587115
15	0xbdbd0adb	-0.09230586
16	0xbd1a8a12	-0.03772933
17	0x3ec09760	0.3761549
18	0xbba27050	-0.0049572363
19	0x3e8500ca	0.25977165
20	0x3e3d6df0	0.18498969
21	0x3e9e69d6	0.3094012
22	0x3ee93a70	0.45552397
23	0x3d78baec	0.060725138
24	0xbe178c5e	-0.1479964
25	0xbe6cc36c	-0.23121423
26	0x3e9787f8	0.29595923
27	0x3de92982	0.1138487
28	0x3ddcfa2f	0.10789906
29	0xbe959651	-0.29216245
30	0x3e52e9c5	0.20596988
31	0x3e7b5b89	0.24546637

onnx::Conv_86 f4 [32, 32, 3, 3]
0	0x3bcca2e1	0.0062450026
1	0x3c111251	0.008854465
2	0x3d0acbe3	0.033885848
3	0x3d0f2ef7	0.0349569
4	0x3cbe513a	0.023232091
5	0x3cf3c00b	0.02975466
6	0xbbcf6c10	-0.0063300207
7	0xbd3bedbb	-0.045881014
8	0xbcf10ab9	-0.029424058
9	0x3c7daaf8	0.015482657
10	0xbd452e8f	-0.048140105
11	0xbd2ed08d	-0.04267936
12	0xbbc84438	-0.006111648
13	0xbd570af7	-0.05250069
14	0xbd36ce64	-0.044630423
15	0x3acbaee7	0.0015539796
16	0x3b70073c	0.0036625406
17	0xbdaf11f7	-0.085483484
18	0x3927e08f	0.00016010016
19	0xbd81025f	-0.062992804
20	0xbdcacf96	-0.09902875
21	0x3d465f4d	0.04843073
22	0x3d34cdf2	0.044141717
23	0x3c88ea0e	0.016713168
24	0x3cd2d666	0.025736999
25	0x3d62ab5e	0.05533921
26	0x3cbf926a	0.023385245
27	0xbccaeaac	-0.024770103
28	0xbd9237af	-0.07139527
29	0xbd95f901	-0.07322884
30	0x3b800e08	0.0039079227
31	0xbce7704e	-0.028251793
32	0xbc6939a5	-0.014234935
33	0xbc92ccd5	-0.017919937
34	0xbdaa0300	-0.083013535
35	0xbd61f7b2	-0.05516786
36	0xbc5f18c6	-0.013616746
37	0x3c11a338	0.008889012
38	0x3c876686	0.01652838
39	0xbda35287	-0.07974725
40	0xbbcc8e8d	-0.0062425793
41	0xbd1e41f7	-0.038637128
42	0xbe245774	-0.16048986
43	0xbe0138d9	-0.12619342
44	0xbd530b45	-0.05152442
45	0xbccc5e99	-0.024947451
46	0xbcd6fe52	-0.026244316
47	0xbd272a3b	-0.04081176
48	0x3c990181	0.018677475
49	0xbccdf3a5	-0.025140593
50	0xbd948b81	-0.07253171
51	0xbd8813c3	-0.06644394
52	0xbdb8cebe	-0.09023808
53	0xbdb46a94	-0.08809391
54	0x3d97e0fe	0.07415961
55	0xbcf4162a	-0.029795725
56	0x3d74bf3d	0.05975269
57	0x3ca978ea	0.02068754
58	0xbd91a619	-0.07111759
59	0x3d4a369b	0.049368482
60	0x3b0a79bb	0.0021129686
61	0x3cad1c1e	0.021131571
62	0x3ccb460f	0.02481368
63	0x3cf321ed	0.029679263
64	0x3d266054	0.04061921
65	0x3d790dce	0.06080418
66	0x3b33b139	0.0027418865
67	0xbd9be444	-0.076118976
68	0xbd83a250	-0.06427443
69	0x3d997150	0.07492316
70	0x3cb04433	0.021516895
71	0x3d559ac4	0.05214955
72	0x3db8884d	0.09010372
73	0x3d035acb	0.03206901
74	0x3cfd36a1	0.030909838
75	0x3df3d641	0.119061
76	0x3d5c57d2	0.05379469
77	0x3beb9ff3	0.0071906983
78	0x3dcfcb5f	0.10146212
79	0x3db3d246	0.08780341
80	0x3dc77aae	0.09740196
81	0x3d3fbfd5	0.046813805
82	0xbb8cd0d6	-0.004297356
83	0x3decea01	0.1156807
84	0x3dd45fbd	0.10369823
85	0x3df5b3aa	0.11997159
86	0x3e0421f3	0.12903576
87	0xbccab854	-0.024746098
88	0x3c938bb9	0.01801096
89	0x3d4a9f35	0.049468238
90	0x3e147636	0.14498219
91	0x3e0f602d	0.14001532
92	0x3e59f2e3	0.2128406
93	0xbd72e4eb	-0.059300344
94	0xbd1fcac4	-0.03901173
95	0x3d9f966c	0.077923626
96	0xbd62a24e	-0.055330567
97	0xbd7001ec	-0.058595583
98	0x3df29b83	0.11846068
99	0x3d85f952	0.06541695
100	0x3c8e968f	0.017405776
101	0xbcb033b5	-0.02150903
102	0x3d15a367	0.036532786
103	0x3d0b18cf	0.033959206
104	0x3ccf4ea9	0.025306063
105	0x3ac7e13b	0.0015249619
106	0x3cf94369	0.030427651
107	0x3d788d0b	0.060681384
108	0xbd0dbcc3	-0.034603845
109	0x3d56b579	0.05241916
110	0xbb96dffa	-0.004604337
111	0xbc8db883	-0.017299896
112	0x3d3d73b4	0.04625292
113	0x3be5dfb3	0.0070151924
114	0xbc4829f0	-0.01221703
115	0x3ac6df55	0.0015172759
116	0xbb8fc484	-0.00438744
117	0x3bc8e2f1	0.006130569
118	0xbd08d371	-0.03340477
119	0xbd2d0079	-0.04223678
120	0x3c14947e	0.009068606
121	0x3cff9d03	0.031202799
122	0xbcac1920	-0.021008074
123	0x3d3bb8d5	0.045830566
124	0x3d75ec20	0.06003964
125	0xbcbd48f1	-0.02310607
126	0xbc4d7709	-0.012540587
127	0x3c8275e3	0.015925353
128	0x3de76af7	0.11299699
129	0xbce8ff22	-0.02844197
130	0xbc39c09a	-0.011337424
131	0x3d6dd533	0.05806465
132	0xbd9b6717	-0.07588022
133	0xbd1d9479	-0.038471673
134	0x3d170d0b	0.036877673
135	0xbd0af2b6	-0.033922873
136	0xbccb0d2b	-0.024786552
137	0xbc9a2671	-0.018817158
138	0xbd802e2e	-0.06258808
139	0x3b3de453	0.0028975203
140	0xbdb21f34	-0.08697358
141	0xbd82a82c	-0.063797325
142	0xbe02b125	-0.12762888
143	0xbdfbb023	-0.12289455
144	0xbd10836f	-0.035281595
145	0x3b88cfbf	0.004175156
146	0xbc8c8708	-0.017154232
147	0xbc93fa2c	-0.018063627
148	0x3bdbe650	0.006710805
149	0xbcfc7134	-0.030815698
150	0xbd17bdb2	-0.037046142
151	0xbcff994b	-0.031201025
152	0x3c6d86a7	0.014497436
153	0xbd1cef5d	-0.038314212
154	0xbbbbc57b	-0.0057303286
155	0xbc492d88	-0.012278922
156	0x3bacaf63	0.005269931
157	0x3b4e6372	0.003149238
158	0x3d3cfafb	0.04613779
159	0x3cb9e7f7	0.022693617
160	0xbd1c826f	-0.03821033
161	0xbc08f077	-0.008358113
162	0x3cd38088	0.025818124
163	0x3d39b01e	0.045333974
164	0x3d927515	0.07151238
165	0xbd25b8aa	-0.040459312
166	0x39443da7	0.00018714984
167	0xbd6c5942	-0.05770231
168	0x3d435f3a	0.047698237
169	0x3da526d4	0.080640465
170	0x3d93e2a5	0.072209634
171	0xbcfa8bdc	-0.030584268
172	0x3de8a2ee	0.11359201
173	0xbc5ed9e7	-0.013601757
174	0xbd63ee32	-0.055647083
175	0x3d377d44	0.044797197
176	0xbd11e233	-0.03561611
177	0xbcaef499	-0.021356868
178	0x3b832c7e	0.0040031066
179	0xbd46147f	-0.04835939
180	0x3d2b7288	0.041857272
181	0x3e147208	0.14496624
182	0x3d4e6f78	0.050399274
183	0x3d00a7b2	0.031409927
184	0x3aaa376c	0.0012986488
185	0x3e105e13	0.14098386
186	0x3c284604	0.010270599
187	0x3dfc6f03	0.12325861
188	0x3d3749ac	0.044747993
189	0x3de6c9dc	0.1126897
190	0x3dc859f4	0.09782782
191	0x3df3a759	0.118971534
192	0xbca70c47	-0.020391596
193	0xbc1f9a63	-0.0097413985
194	0x3d5444a5	0.051823277
195	0x3cfdc15d	0.030975992
196	0x3d84f37c	0.064917535
197	0x3e1d5ab0	0.15366626
198	0x3d446b87	0.04795411
199	0x3dae8360	0.085211515
200	0x3de63ef3	0.11242475
201	0x3cdcbcf0	0.026945561
202	0xbb30e4d3	-0.0026991859
203	0x3d22ccf0	0.039746225
204	0x3c093cac	0.008376282
205	0x3cffbf99	0.03121929
206	0x3dba1973	0.09086885
207	0x38f48ce4	0.000116610696
208	0xbb6cf36a	-0.0036155828
209	0xb98b6179	-0.0002658477
210	0xbcbff19f	-0.023430644
211	0xbc5b0409	-0.013367661
212	0xbd2c8089	-0.04211477
213	0xbc4ea1af	-0.012611791
214	0xbc9023bb	-0.017595163
215	0xbc501578	-0.012700431
216	0xbd8b281b	-0.06794759
217	0x3d995cc6	0.07488398
218	0xbcd9de53	-0.02659527
219	0xbca551b5	-0.020180563
220	0x3e14c3b0	0.14527774
221	0xbbe42da1	-0.006963447
222	0xbccc196c	-0.024914466
223	0x3d81e6f9	0.06342883
224	0x3c92d1b8	0.017922267
225	0x3d250140	0.040284395
226	0x3d77af5d	0.060469974
227	0xbccf1d29	-0.02528246
228	0xbc8f9e5a	-0.017531563
229	0x3c0f0a45	0.008730476
230	0xbc989957	-0.018627806
231	0xbb1b81ef	-0.002372857
232	0xbcc5144b	-0.024057528
233	0xbd149621	-0.036275987
234	0xbcffa43f	-0.031206248
235	0xbdb4d8e1	-0.08830429
236	0xbdcaa9be	-0.09895657
237	0x3d2dda51	0.04244453
238	0x3b05b7d6	0.0020403764
239	0x3c9520bc	0.018204086
240	0xbc3da8e4	-0.011575911
241	0x3cf7233a	0.030168165
242	0x3c0934b5	0.008374383
243	0x3c1c7e75	0.009551634
244	0x3c336fc9	0.010951945
245	0x3d3ca6b9	0.046057437
246	0xbc08daf8	-0.0083529875
247	0xbc180591	-0.009278671
248	0x3c893343	0.016748076
249	0x3b887803	0.004164697
250	0xbcd87d7b	-0.026427021
251	0x3b9574a8	0.0045610256
252	0x3e6eaec8	0.23308861
253	0x3e336593	0.17519216
254	0x3e257b23	0.16160254
255	0x3c995b96	0.01872043

onnx::Conv_87 f4 [32]
0	0xbe92d9ac	-0.28681695
1	0xbf0318ad	-0.5120953
2	0x3e09596a	0.13413015
3	0x3eb895db	0.3605183
4	0xbeaeb087	-0.34119055
5	0x3b317138	0.002707554
6	0xbe73f2f6	-0.23823151
7	0xbf2ef3fb	-0.68341035
8	0x3ec29d26	0.3801052
9	0xbe9e19bb	-0.30879006
10	0xbf42b9f9	-0.7606502
11	0x3e6e6891	0.23282076
12	0xbd5e8783	-0.054328453
13	0xbea28f82	-0.31750113
14	0xbe284a2b	-0.16434543
15	0x3ec0ea87	0.3767893
16	0xbe32a815	-0.1744693
17	0xbd29300a	-0.04130558
18	0xbd9ba9b5	-0.076007284
19	0x3f25f267	0.64823
20	0x3e4c0d1a	0.19926873
21	0x3e2843fa	0.16432181
22	0x3ec7eb11	0.3904653
23	0x3dadbf4c	0.084837526
24	0x3e0f756e	0.1400964
25	0x3db79017	0.0896303
26	0x3f2a52c2	0.6653253
27	0xbdf50168	-0.11963159
28	0x3e532596	0.20619807
29	0xbe7599b6	-0.23984417
30	0xbe87c003	-0.2651368
31	0xbd9782cc	-0.073979944

onnx::Conv_89 f4 [32, 16, 1, 1]
0	0x3be3c530	0.006950997
1	0x3e3e9c86	0.18614396
2	0xbdf1ab9e	-0.118003115
3	0xbd7ca383	-0.061679374
4	0x3d6d74a4	0.057972565
5	0x3ce789cf	0.028263954
6	0x3ddfa4fd	0.10920141
7	0x3d7ffc74	0.062496617
8	0xbb9b33a9	-0.004736383
9	0xbd797a4f	-0.06090766
10	0x3da68cc8	0.08132321
11	0xbd2716ec	-0.040793344
12	0xbdc7b3e9	-0.09751112
13	0x3c61d56a	0.013783792
14	0xbdf73711	-0.1207105
15	0x3d99ae1d	0.075039126
16	0xbe20fb0d	-0.15720768
17	0x3eab7e5f	0.3349485
18	0xbd84d49f	-0.06485867
19	0x3dc9e9af	0.09859025
20	0xbe8e1a95	-0.27754655
21	0xbd972e5a	-0.07381888
22	0x3e3ad54b	0.18245427
23	0x3e6b181e	0.22958419
24	0x3e70c55e	0.2351279
25	0x3e3279b9	0.17429246
26	0xbdb0b44e	-0.086281404
27	0xbd2a5508	-0.041585
28	0xbe3f1a7d	-0.18662448
29	0x3dd57af6	0.104238436
30	0xbe8fe8e6	-0.28107375
31	0xbe3cb381	-0.1842785
32	0xbe174b10	-0.14774728
33	0x3cd65c99	0.0261672
34	0xbe212f09	-0.15740599
35	0x3d9a0897	0.0752117
36	0xbe563387	-0.20918094
37	0xbda54fd2	-0.08071865
38	0x3df9022c	0.121586174
39	0xbe2788a3	-0.16360717
40	0xbe005daf	-0.12535737
41	0xbdd6df0a	-0.1049176
42	0xbe57efff	-0.21087645
43	0xbd5952bc	-0.053057417
44	0xbe0512e9	-0.12995495
45	0x3c1de307	0.009636647
46	0x3be0dbe5	0.006862151
47	0xbe050575	-0.12990363
48	0xbb51f70c	-0.003203812
49	0xbd4180e9	-0.04724208
50	0xbe460be3	-0.19340472
51	0x3de14839	0.110001035
52	0xbdbc4126	-0.091921136
53	0xbe80b3bb	-0.25137123
54	0xbe2ee7c8	-0.17080605
55	0x3d969b6d	0.07353864
56	0xbd1df14d	-0.0385602
57	0xbd1e768f	-0.038687285
58	0x3de49444	0.11161092
59	0xbb7a0ba3	-0.0038153909
60	0xbddecab1	-0.10878504
61	0xbdbf7740	-0.09348917
62	0xb9de710c	-0.00042427366
63	0x3b924bc2	0.0044645974
64	0xbd4e8b53	-0.05042584
65	0x3c33aabf	0.010966002
66	0x3b729cba	0.0037019686
67	0x3db5e8d9	0.08882303
68	0x3dbe92e9	0.09305365
69	0xbce8b267	-0.028405381
70	0xbd413a0e	-0.047174506
71	0x3d88bd2f	0.06676709
72	0x3d3de363	0.04635943
73	0xbd5dfd99	-0.054196928
74	0xbd60858d	-0.054814864
75	0x3d7bb562	0.061452277
76	0xbb0ffbbd	-0.0021970116
77	0xbd4db148	-0.050217897
78	0xbca7a639	-0.020465003
79	0x3c05404f	0.008133008
80	0x3c9c3919	0.019070195
81	0xbd8281ae	-0.06372391
82	0xbcdbee49	-0.026847022
83	0x3cdab026	0.026695322
84	0xbd2a480a	-0.041572608
85	0xbc1e850e	-0.009675277
86	0x3a5b1d22	0.0008358528
87	0xbd2e5501	-0.042561535
88	0x3c089b97	0.008337877
89	0x3d2cf14f	0.042222317
90	0xbc179590	-0.009251967
91	0x3d3cff86	0.046142124
92	0x3d007797	0.03136405
93	0x3d062dba	0.032758452
94	0x3d0eef69	0.034896288
95	0x3c6488a4	0.013948593
96	0x3dbf67ca	0.09345968
97	0x3db015ac	0.085978836
98	0x3e0976b6	0.13424191
99	0x3e62152c	0.22078389
100	0xbe3466cd	-0.1761734
101	0x3e165c47	0.14683639
102	0x3d103fbd	0.035217036
103	0xbd7e563a	-0.06209395
104	0x3dbd1dfc	0.09234235
105	0x3dc6d9fb	0.09709545
106	0x3ce2a8f4	0.027668454
107	0x3d01e30e	0.031710677
108	0x3b604ea3	0.0034226559
109	0x3dc012ef	0.09378611
110	0x3e07ed12	0.13274029
111	0xbe1a4773	-0.15066318
112	0x3e7276d8	0.23678148
113	0xbe1b5c6e	-0.15171978
114	0xbd3a20c0	-0.04544139
115	0xbd87e127	-0.06634741
116	0xbcf90061	-0.030395688
117	0x3e2c8875	0.16848929
118	0xbd8ff73c	-0.07029578
119	0xbe522838	-0.20523155
120	0xbbcdfe22	-0.0062863985
121	0xbc959255	-0.018258253
122	0xbe4149a1	-0.18875743
123	0x3d99869b	0.07496377
124	0x3ca57d39	0.020201312
125	0xbdc9f2bd	-0.09860752
126	0x3e04933b	0.12946789
127	0x3e050ede	0.12993953
128	0xbdb2ac19	-0.08724231
129	0xbd242aaf	-0.04007977
130	0xbcbc444b	-0.022981783
131	0x3d8ddd9d	0.06927035
132	0xbd52fe96	-0.051512323
133	0xbe1adce3	-0.15123324
134	0x3d914465	0.07093123
135	0x3d05a0a2	0.032623895
136	0xbd803415	-0.06259934
137	0xbe234cfd	-0.15947337
138	0xbbfdb0e0	-0.0077420324
139	0x3ddf0df8	0.10891336
140	0x3e27dcee	0.16392872
141	0x3e378f59	0.17925777
142	0xbe32d66e	-0.17464611
143	0xbd2bb34e	-0.041919045
144	0x3d8e6b8a	0.06954105
145	0x3e04e7ad	0.12979002
146	0x3d73541c	0.059406385
147	0x3e0354e5	0.12825353
148	0x3d89b47c	0.06723878
149	0xbca5d223	-0.020241803
150	0xbd0db574	-0.034596875
151	0xbd850200	-0.06494522
152	0xbd9c4af2	-0.07631482
153	0xbc97cba6	-0.018529724
154	0xbd462da2	-0.048383363
155	0x3d66631a	0.056246854
156	0xbd9e79f8	-0.077381074
157	0x3d644205	0.055727024
158	0x3c3bdc0f	0.01146604
159	0xbde540f8	-0.111940324
160	0xbd055675	-0.032553155
161	0x3dbbddd6	0.09173171
162	0x3e8e3b6d	0.27779713
163	0xbd31fb52	-0.04345257
164	0xbe9910fa	-0.29895765
165	0x3df234dc	0.118264884
166	0x3d81dc56	0.06340854
167	0x3ef0c128	0.47022367
168	0x3e6200ec	0.22070664
169	0x3e65d70e	0.22445318
170	0x3d252095	0.040314276
171	0xbe049568	-0.12947619
172	0x3dc58168	0.09643823
173	0x3e2ddcdf	0.16978787
174	0xbebcf267	-0.36903688
175	0xbe85ce1e	-0.26133817
176	0xbe8208fc	-0.2539748
177	0x3cae8a24	0.021306105
178	0xbe1d49d6	-0.15360197
179	0xbce59c36	-0.028028589
180	0x3d7234b7	0.059132304
181	0xbe41896b	-0.18900077
182	0x3e10d223	0.14142661
183	0xbd32963d	-0.04360031
184	0xbb610e51	-0.0034340809
185	0xbdc98168	-0.098391354
186	0x3e396aa4	0.18107086
187	0x3c8d5ace	0.017255213
188	0x3e4ba9c8	0.19888985
189	0x3e79a8ca	0.24380794
190	0xbe3237f7	-0.17404161
191	0x3d5c971c	0.053855047
192	0xbc919fef	-0.017776458
193	0x3a9a145b	0.0011755334
194	0x3ca601ca	0.020264525
195	0xbbafc59c	-0.005364133
196	0x3b875efa	0.004131195
197	0xbd2ab201	-0.041673664
198	0x3cacc167	0.021088315
199	0xbd41414b	-0.04718141
200	0xbb42b22a	-0.0029708245
201	0x3ae4d57f	0.0017458646
202	0x3d13449a	0.035954095
203	0x3c74afb2	0.014934467
204	0x3d53cb0c	0.051707312
205	0x3cbe5c35	0.023237327
206	0x3c96f8ec	0.018429242
207	0xbcb134a4	-0.021631546
208	0x3e6cfcb8	0.2314328
209	0x3e37578b	0.17904489
210	0xbe214728	-0.157498
211	0x3d501ab7	0.050806727
212	0xbe95b858	-0.29242206
213	0xbe515dda	-0.20445958
214	0xbe071a8c	-0.1319372
215	0x3e09561b	0.13411753
216	0xbc41431a	-0.011795783
217	0xbd4b0e45	-0.049574155
218	0x3d356442	0.044285066
219	0x3e0808fa	0.13284674
220	0x3e1ae674	0.15126973
221	0xbe38aa6d	-0.18033762
222	0x3d8e17c3	0.06938126
223	0xbe3bdaa2	-0.1834512
224	0x3d8b7e57	0.06811207
225	0x3d64195c	0.055688247
226	0xbd387e3d	-0.045042265
227	0xbd4b235f	-0.04959428
228	0xbd963a42	-0.073353305
229	0xbdb8621c	-0.09003088
230	0x3da625a9	0.08112652
231	0x3d9ab837	0.075546674
232	0x3da9ea46	0.08296637
233	0x3d379801	0.044822697
234	0x3d3ef658	0.04662165
235	0x3dc31ad0	0.095265985
236	0x3c5cf429	0.013485947
237	0x3c173e27	0.009231127
238	0x3cdbb409	0.026819246
239	0x3ddcbe0d	0.10778437
240	0x3eb6adff	0.35679623
241	0x3dbcbd5b	0.09215804
242	0x3e4b526f	0.19855665
243	0x3e8ce4af	0.27518222
244	0xbe0386e7	-0.1284443
245	0xbe24956e	-0.16072628
246	0x3cee0ee8	0.029059842
247	0x3e601153	0.21881609
248	0xbe24b626	-0.16085109
249	0x3d15f450	0.036609948
250	0xbd047b16	-0.032343946
251	0xbe3ef22a	-0.18647066
252	0x3e6454b6	0.2229794
253	0xbe686b47	-0.22697173
254	0x3defeebf	0.11715459
255	0xbca14a7f	-0.019688843

onnx::Conv_90 f4 [32]
0	0xbdfa3644	-0.122173816
1	0xbe0fefb2	-0.1405628
2	0x3f21e02f	0.632327
3	0x3ebc40b3	0.36768112
4	0xbcf01b48	-0.029309884
5	0xbbccfd1d	-0.0062557594
6	0xbed4b5ac	-0.41544855
7	0x3db44bec	0.088035434
8	0x3dd9f65e	0.10642694
9	0xbda2fe00	-0.07958603
10	0xbf0f023a	-0.5586277
11	0x3cc678ea	0.024227578
12	0xbc998944	-0.018742211
13	0x3dc796ce	0.097455606
14	0xbe3de824	-0.18545586
15	0xbea46682	-0.32109457
16	0x3bf7b598	0.0075594895
17	0xbe55a9d5	-0.20865567
18	0xbd1badf6	-0.0380077
19	0xbe9afac1	-0.30269435
20	0x3cbbee8b	0.022940895
21	0xbe035a86	-0.128275
22	0xbeb91dc3	-0.3615552
23	0xbe064e28	-0.13115752
24	0x3e7df5e4	0.24800831
25	0xbd8da105	-0.06915478
26	0xbecb9ecf	-0.397696
27	0x3e83d4b6	0.25748223
28	0x3cc33959	0.023831056
29	0xbe4455b1	-0.19173314
30	0x3d868fdc	0.06570408
31	0x3da777ba	0.08177133

onnx::Conv_92 f4 [64, 32, 3, 3]
0	0xbb1b7feb	-0.0023727368
1	0xbb27cd2b	-0.0025604467
2	0xbb29a734	-0.0025887014
3	0xba9e14e4	-0.0012060669
4	0x37b16460	2.1146785e-05
5	0x39bfa318	0.00036551873
6	0xbb241bed	-0.002504106
7	0xb9003e72	-0.00012230294
8	0xbb1e5c58	-0.0024163928
9	0x3a2d6c25	0.0006615541
10	0xb99fb336	-0.00030460366
11	0x39a08fdf	0.0003062477
12	0x3a865f9d	0.0010251884
13	0xb928c404	-0.0001609475
14	0x3a055ae3	0.00050870905
15	0x3b058490	0.0020373203
16	0x3aaf823f	0.0013390257
17	0xba274700	-0.0006381124
18	0xba7535c0	-0.00093540177
19	0xba55f368	-0.00081615755
20	0x3ab364f0	0.0013686698
21	0xbb292be7	-0.0025813521
22	0xbb64f4fa	-0.0034936056
23	0xbaf74f43	-0.0018868226
24	0xbb03019a	-0.0019989968
25	0xbb44862c	-0.00299872
26	0xbae620f7	-0.0017557432
27	0x38f05b67	0.00011461117
28	0x39fbc27e	0.0004801936
29	0xbaf7a6fd	-0.0018894371
30	0xbb11649f	-0.002218522
31	0xbaa38eed	-0.0012478508
32	0xbb6c26b6	-0.0036033816
33	0xba8ca6f8	-0.0010730913
34	0xba282b39	-0.0006415132
35	0xbb5acbae	-0.0033385563
36	0x3a6e00a7	0.00090790767
37	0xb991cb74	-0.0002780814
38	0xbacde794	-0.0015709274
39	0x3a3ed697	0.0007279901
40	0xba4d2d58	-0.0007826886
41	0xba7b5853	-0.00095880515
42	0x3a6afbf4	0.00089639355
43	0xb9eb0b7b	-0.00044831246
44	0xba867838	-0.0010259217
45	0x3aa7cb70	0.0012801718
46	0x3ab870d5	0.0014071713
47	0x3aed8f35	0.0018124344
48	0x3a9009e4	0.0010989276
49	0x3aff1e11	0.0019463917
50	0x3ae21ce2	0.0017251039
51	0x3ac2c444	0.0014859517
52	0x3aea6b97	0.0017884847
53	0x3afc63e4	0.0019255844
54	0xba435ded	-0.00074526557
55	0x3b59d54a	0.0033238702
56	0x3b668d17	0.003517931
57	0x381fb2e5	3.8075163e-05
58	0x3b3abaa2	0.002849259
59	0x3b7e83b4	0.0038835825
60	0x38df8112	0.0001065751
61	0x39fdd0dc	0.00048411533
62	0x3b1a8272	0.0023576287
63	0xba47acd1	-0.0007616999
64	0x3a147b79	0.0005664151
65	0x3b04297d	0.002016633
66	0xba971f0e	-0.0011529641
67	0x3a1a9ac3	0.0005897695
68	0x3aaf295b	0.0013363765
69	0xba275c4e	-0.0006384299
70	0xba130658	-0.000560855
71	0x3a5b1762	0.00083576713
72	0xbaa13123	-0.0012297969
73	0xbadda2f7	-0.0016909529
74	0xb97e0268	-0.00024224224
75	0xbaf1c393	-0.0018445126
76	0xbaffb8d7	-0.0019510043
77	0xba59277a	-0.00082837755
78	0xbabb9dd6	-0.0014314007
79	0xbab7bcd0	-0.0014018063
80	0x36921556	4.353623e-06
81	0x3a49913e	0.0007689184
82	0x3b1d5d01	0.0024011733
83	0x3b021519	0.0019849
84	0x3b06ba6f	0.00205579
85	0x3b07b3c7	0.002070652
86	0x3b00eda4	0.0019672895
87	0x3ad6fec1	0.0016402827
88	0x3aac8b9e	0.0013164168
89	0x3a52eb84	0.0008045959
90	0xb80f74f2	-3.420277e-05
91	0x3b19db96	0.002347683
92	0x3b8090e8	0.003923524
93	0xbb10d274	-0.0022098096
94	0x39cd5015	0.00039160313
95	0x3b886fb0	0.004163705
96	0xba47d46a	-0.00076229
97	0x3aba061d	0.0014192496
98	0x3a45a495	0.0007539478
99	0xbac6d676	-0.0015170116
100	0xba4f1d5c	-0.0007900798
101	0xba46586d	-0.0007566277
102	0xba9227bb	-0.0011150757
103	0xbad45bbd	-0.0016201657
104	0xbacc7499	-0.0015598714
105	0xbaa77f5d	-0.0012779046
106	0xba8a5bc8	-0.0010555917
107	0xbaa919ab	-0.0012901326
108	0x3a96ce8a	0.0011505645
109	0x3a3d6a4e	0.00072256185
110	0x3a1933f7	0.000584423
111	0x3a740f96	0.0009310184
112	0x3a52fcbb	0.0008048524
113	0x3a41d3b5	0.00073939125
114	0x3a87270e	0.0010311322
115	0x3a19e6cc	0.0005870878
116	0x3a4c504f	0.00077939493
117	0xba595031	-0.00082898425
118	0x3a2486c3	0.00062761846
119	0xb9bd8b36	-0.0003615261
120	0xb9f89668	-0.00047414307
121	0xb89e524b	-7.549355e-05
122	0x39970d4e	0.00028810877
123	0xb9e2a6d4	-0.00043230376
124	0xb98068cf	-0.0002449215
125	0xba104e76	-0.00055048557
126	0x3aa92161	0.0012903624
127	0x3a0db098	0.00054050377
128	0x392697c7	0.00015887535
129	0x3a1b7034	0.00059295003
130	0xb927663c	-0.00015964446
131	0xba1fe4b9	-0.0006099451
132	0x3adec400	0.0016995668
133	0x3a381a62	0.00070229743
134	0xb9bf2753	-0.00036459658
135	0x3aeab55d	0.0017906834
136	0x3b13c249	0.0022546223
137	0x3b2052af	0.0024463346
138	0x3a86510b	0.0010247541
139	0x3ae49800	0.0017440319
140	0x3b111257	0.0022136176
141	0x3b0cbbd3	0.0021474257
142	0x3b157163	0.002280318
143	0x3b6592c7	0.0035030113
144	0xba9b1fd7	-0.001183505
145	0xbadf6de6	-0.0017046302
146	0xba860416	-0.0010224606
147	0xbab760e4	-0.0013990668
148	0xbaeca4b9	-0.0018054462
149	0xba8b3155	-0.001061956
150	0xba9fefbb	-0.0012202183
151	0xbb0307ed	-0.0019993738
152	0xbad45da1	-0.001620222
153	0x3a8460bd	0.0010099631
154	0x3ab0aabb	0.0013478616
155	0x3aa37a95	0.0012472445
156	0x3b01b27c	0.0019790223
157	0x3ab8a209	0.0014086376
158	0x3aeb40aa	0.0017948349
159	0x3b096127	0.0020962448
160	0x3ac3c62b	0.0014936378
161	0x3ab6bdd0	0.0013942067
162	0x39b516b2	0.0003453992
163	0x39a12d94	0.0003074227
164	0xb93b7d15	-0.00017880306
165	0x394fb22d	0.00019807434
166	0x38036ed7	3.133606e-05
167	0xb9aff994	-0.0003356455
168	0x39b6fbc0	0.00034901313
169	0x38c042bb	9.167703e-05
170	0xb9254716	-0.00015762108
171	0x3afd293b	0.0019314656
172	0xba8de61b	-0.0010826023
173	0x3aafcc20	0.0013412274
174	0x3b5605f7	0.0032657364
175	0x3987215a	0.00025774055
176	0x3af0589e	0.0018336957
177	0x3b96fa5b	0.0046074814
178	0x3a29cd4f	0.0006477432
179	0x3b56988c	0.0032744734
180	0x3b013df4	0.0019720765
181	0x3895901a	7.131715e-05
182	0xba4566d0	-0.0007530274
183	0x3b354c9b	0.0027664069
184	0x3a332c52	0.00068349123
185	0x3aa9013d	0.0012894046
186	0x3ad869de	0.0016511043
187	0xb901dfb7	-0.00012385739
188	0x3a41b51a	0.0007389352
189	0xbad702e6	-0.0016404062
190	0x39a5dfc5	0.00031637974
191	0x3a3464e1	0.0006881487
192	0xbb11260b	-0.002214792
193	0xba48b100	-0.00076557696
194	0xba26ca65	-0.00063625566
195	0xba653c69	-0.00087446586
196	0xba7f959d	-0.0009749772
197	0xba8e053c	-0.00108353
198	0x3ae90c96	0.001778024
199	0xba1f6b49	-0.00060813554
200	0x3a770fc7	0.0009424653
201	0x3b2a8b97	0.0026023143
202	0xb7c2171f	-2.3137369e-05
203	0x3af1d8a5	0.0018451406
204	0x3b444acc	0.002995181
205	0xba8aefc9	-0.0010600026
206	0x3ae177ac	0.0017201803
207	0xb9f4a558	-0.00046662497
208	0x3ac83d6c	0.0015277094
209	0x3aaf8bdf	0.0013393125
210	0x3a3889ba	0.0007039566
211	0x3a93f9e9	0.0011289689
212	0x3b01a133	0.001977992
213	0x396cb60b	0.0002257453
214	0x3ab6b7fd	0.0013940331
215	0x39df5b62	0.0004260196
216	0x3b1c9064	0.0023889774
217	0x3a1aba16	0.0005902363
218	0x395292c9	0.00020081842
219	0x3a46471a	0.00075636955
220	0xba919bdd	-0.0011109073
221	0xbad1ba31	-0.0016000924
222	0xb9695190	-0.00022250996
223	0xbac80902	-0.0015261474
224	0xbae30b36	-0.0017322067
225	0xbacaf712	-0.001548501
226	0xbaad60f3	-0.0013227746
227	0x39ceb074	0.0003942285
228	0xbaa00e8f	-0.001221137
229	0xba834830	-0.001001602
230	0xb9d9901c	-0.00041496835
231	0xb9811024	-0.00024616823
232	0xb99d320a	-0.00029982656
233	0x3a1a08b8	0.0005875933
234	0x3b7a4d70	0.003819313
235	0x3b49d330	0.0030796044
236	0x3aacdff7	0.0013189305
237	0x3bb0b28a	0.0053923773
238	0x3b54796c	0.0032421006
239	0x3b66eb8b	0.003523561
240	0x3b9f220e	0.0048563546
241	0x3b5daae2	0.0033823778
242	0x3b815852	0.003947296
243	0x3b2debda	0.0026538284
244	0x3b035d99	0.0020044802
245	0xb8c96760	-9.603682e-05
246	0x3ae6af97	0.0017599937
247	0x3acb33db	0.0015503125
248	0xba0ff9f7	-0.0005492265
249	0x3afa097f	0.0019076316
250	0x3a9fb1b0	0.0012183692
251	0xb8c0ef9c	-9.199904e-05
252	0xbaba2cc8	-0.001420402
253	0xb942c4c4	-0.00018574583
254	0x3acf6230	0.0015822109
255	0xbb015398	-0.0019733664

onnx::Conv_93 f4 [64]
0	0xbccfe5f4	-0.025378205
1	0x3c461d0e	0.012091888
2	0xbdb1a1b6	-0.08673422
3	0xbd5ae4d0	-0.05344087
4	0x3c9b4802	0.018955234
5	0xb29f6c49	-1.8559279e-08
6	0x3e50a6fe	0.20376202
7	0xbc60187a	-0.013677711
8	0xbb2a1f61	-0.0025958645
9	0xbb8790c2	-0.0041371295
10	0x3e9a83d1	0.30178693
11	0xbe11643c	-0.14198393
12	0xbda6f649	-0.08152444
13	0xbe06fd08	-0.13182461
14	0xbbc83a8e	-0.006110496
15	0x3c752b98	0.014964007
16	0xbc65cb20	-0.01402548
17	0x3e2b9e2b	0.16759555
18	0x3e042c41	0.12907507
19	0xba546400	-0.00081020594
20	0x3d4e7fe6	0.050414942
21	0xbd8893a6	-0.06668787
22	0xbd5d401b	-0.054016214
23	0xbd268108	-0.040650398
24	0xbe1dadbb	-0.15398304
25	0xbc3db710	-0.01157929
26	0x3c1f6ff0	0.009731278
27	0xbe0eec56	-0.13957343
28	0xbc5e0e1a	-0.013553167
29	0xbd4a8961	-0.04944742
30	0x3b511824	0.0031905258
31	0x3c46d565	0.012135838
32	0xb91429e3	-0.00014129984
33	0x3da72051	0.08160461
34	0xbc548a96	-0.012972495
35	0xbe043a58	-0.12912881
36	0xbd748064	-0.059692755
37	0xbcd2eb59	-0.025746988
38	0xbd0f59bc	-0.034997687
39	0x3d0972c1	0.033556703
40	0x3eaa0eb2	0.33214337
41	0x3c107fac	0.008819502
42	0xbe0c6405	-0.1371003
43	0xba7aa1ec	-0.00095608714
44	0xbd0e470e	-0.03473573
45	0xbe5b2c20	-0.21403551
46	0xbc085679	-0.008321398
47	0xbcba3102	-0.022728447
48	0x3b27bc3e	0.0025594379
49	0x3e13411e	0.14380309
50	0x3b03d098	0.0020113345
51	0xbbcc5146	-0.0062352745
52	0xbd41e756	-0.04733976
53	0xbd17306c	-0.036911413
54	0xbc94ee70	-0.018180102
55	0xbd9cce60	-0.076565504
56	0x3bb651b0	0.005563937
57	0xbaa29fab	-0.0012407204
58	0xbd714cdf	-0.0589112
59	0xbd7c0c78	-0.06153533
60	0xbca6568a	-0.020304937
61	0xbcd81446	-0.026376855
62	0xbe11b002	-0.14227298
63	0x3d44776f	0.047965463
